…
      "  \"\"\"Entry point for launching an IPython kernel.\n"
     ]
    }
   ],
   "source": [
    "cur_model = Model(input = vgg_model.input, output = out_layer)"
   ]
  },
  {
   "cell_type": "code",
   "execution_count": 5,
   "metadata": {},
   "outputs": [
    {
     "name": "stdout",
     "output_type": "stream",
     "text": [
      "_________________________________________________________________\n",
      "Layer (type)                 Output Shape              Param #   \n",
      "=================================================================\n",
      "input_1 (InputLayer)         (None, 32, 32, 3)         0         \n",
      "_________________________________________________________________\n",
      "block1_conv1 (Conv2D)        (None, 32, 32, 64)        1792      \n",
      "_________________________________________________________________\n",
      "block1_conv2 (Conv2D)        (None, 32, 32, 64)        36928     \n",
      "_________________________________________________________________\n",
      "block1_pool (MaxPooling2D)   (None, 16, 16, 64)        0         \n",
      "_________________________________________________________________\n",
      "block2_conv1 (Conv2D)        (None, 16, 16, 128)       73856     \n",
      "_________________________________________________________________\n",
      "block2_conv2 (Conv2D)        (None, 16, 16, 128)       147584    \n",
      "_________________________________________________________________\n",
      "block2_pool (MaxPooling2D)   (None, 8, 8, 128)         0         \n",
      "_________________________________________________________________\n",
      "block3_conv1 (Conv2D)        (None, 8, 8, 256)         295168    \n",
      "_________________________________________________________________\n",
      "block3_conv2 (Conv2D)        (None, 8, 8, 256)         590080    \n",
      "_________________________________________________________________\n",
      "block3_conv3 (Conv2D)        (None, 8, 8, 256)         590080    \n",
      "_________________________________________________________________\n",
      "block3_pool (MaxPooling2D)   (None, 4, 4, 256)         0         \n",
      "_________________________________________________________________\n",
      "flatten_1 (Flatten)          (None, 4096)              0         \n",
      "_________________________________________________________________\n",
      "dense_1 (Dense)              (None, 128)               524416    \n",
      "_________________________________________________________________\n",
      "dense_2 (Dense)              (None, 10)                1290      \n",
      "=================================================================\n",
      "Total params: 2,261,194\n",
      "Trainable params: 525,706\n",
      "Non-trainable params: 1,735,488\n",
      "_________________________________________________________________\n"
     ]
    }
   ],
   "source": [
    "# Decide whether you want to change the pre-trained weights or not.\n",
    "# Here I keep the first 10 layers' weights\n",
…
